pm_data/trained_models/rnn_model.pt (torch, 688537 bytes, 16 tensors)

lstm.weight_ih_l0 f4 [10, 1]
-0.051426783 0.0065516364 0.113062315 0.21180394 -0.061473615 -0.120424785 0.097319245 -0.17933391
0.117007434 0.2450933
00000000: e4a4 52bd 1caf d63b 378d e73d 22e3 583e
00000010: c2cb 7bbd 45a1 f6bd 504f c73d 4fa3 37be
00000020: 98a1 ef3d bdf9 7a3e

lstm.weight_hh_l0 f4 [10, 10]
0.055327132 -0.055731427 -0.09261181 0.25728706 0.015545475 0.32034442 -0.10643265 -0.36294284
0.14077312 -0.30225322 0.31016666 0.14656137 0.006529105 -0.17474785 0.09158861 0.29207698
0.119220436 0.12815489 -0.38355416 -0.17080212 -0.29511505 -0.084155664 0.1271436 0.14973013
-0.18223923 -0.22090237 0.20868191 -0.2450639 0.050422307 0.10642273 0.2730371 -0.11214113
-0.15328851 -0.38774773 0.14527051 -0.017066652 0.35056326 0.06806914 -0.13694532 -0.029267367
-0.12268445 0.059850235 -0.17915119 0.13259768 0.14407136 0.171123 -0.16326137 -0.101648614
0.19104104 0.05808496 0.33692575 -0.039777078 -0.12057963 -0.116602466 -0.16616532 0.33099198
0.07799085 -0.23342814 -0.07473096 0.24594498 -0.030861568 0.046782244 -0.24929638 -0.18292294
0.105544746 0.23285572 -0.009291538 0.019065524 0.04594281 -0.08981534 -0.3875339 -0.02781823
0.044507384 -0.25164774 -0.28545487 -0.08912129 0.203167 0.3200307 0.2259096 0.086832434
-0.035062075 -0.15237819 0.13288799 0.2652714 0.09042942 0.12199877 -0.032412007 0.35842073
0.2518455 -0.20567563 -0.0989945 0.0743366 0.037412133 0.12975729 0.20018928 -0.37340784
0.014522826 0.41680187 0.083438545 0.3409328
00000000: b49e 623d a346 64bd 43ab bdbd 21bb 833e
00000010: 73b2 7e3c 2f04 a43e 5cf9 d9bd a5d3 b9be
00000020: d426 103e efc0 9abe 2ace 9e3e 2f14 163e
00000030: 1af2 d53b 1af1 32be cf92 bb3d 1d8b 953e
00000040: d829 f43d 093b 033e 3661 c4be c0e6 2ebe
00000050: 5219 97be ce59 acbd ef31 023e db52 193e
00000060: ec9c 3abe 3b34 62be b6b0 553e 08f2 7abe
00000070: 9f87 4e3d 29f4 d93d 85cb 8b3e 40aa e5bd
00000080: aaf7 1cbe df86 c6be cbc1 143e 5dcf 8bbc
00000090: 077d b33e d567 8b3d 653b 0cbe 1ec2 efbc
000000a0: fc41 fbbd 8525 753d 6973 37be b0c7 073e
000000b0: 7187 133e de3a 2f3e fd2d 27be 262d d0bd
000000c0: 43a0 433e 7fea 6d3d 8881 ac3e 4aed 22bd
000000d0: 74f2 f6bd 46cd eebd 3e27 2abe c877 a93e
000000e0: abb9 9f3d c907 6fbe 8c0c 99bd 00d9 7b3e
000000f0: 66d1 fcbc bd9e 3f3d 8d47 7fbe 2750 3bbe
00000100: d827 d83d bb71 6e3e 893b 18bc 4d2f 9c3c
00000110: 872e 3c3d 1bf1 b7bd d86a c6be 0fe3 e3bc
00000120: 604d 363d f9d7 80be 2427 92be 3985 b6bd
00000130: 030b 503e 10db a33e d954 673e 34d5 b13d
00000140: 409d 0fbd 0709 1cbe ca13 083e a7d1 873e
00000150: 0f33 b93d 7eda f93d 74c2 04bd ec82 b73e
00000160: e5f1 803e a29c 52be a1bd cabd ca3d 983d
00000170: 773d 193d 18df 043e 6bfe 4c3e 502f bfbe
00000180: 26f1 6d3c 0e67 d53e d4e1 aa3d be8e ae3e

lstm.bias_ih_l0 f4 [10]
-0.06282969 -0.12352707 -0.13529462 -0.10377536 0.04127337 0.106426366 -0.09858194 0.00771284
0.031191621 0.096111424
00000000: daac 80bd c3fb fcbd ac8a 0abe 2d88 d4bd
00000010: 440e 293d 11f6 d93d 54e5 c9bd febb fc3b
00000020: 9285 ff3c 11d6 c43d

lstm.bias_hh_l0 f4 [10]
-0.059949756 -0.035351455 0.009640183 0.019855538 0.18314676 0.004481744 -0.14588112 0.030450786
-0.05512542 0.11767663
00000000: e08d 75bd b0cc 10bd dcf1 1d3c 15a8 a23c
00000010: d38a 3b3e 98db 923b dc61 15be ed73 f93c
00000020: 31cb 61bd 7200 f13d

lstm.weight_ih_l1 f4 [10, 10]
0.24588367 0.024451088 -0.28133112 -0.068561904 0.1517371 -0.016669253 -0.21276215 0.053766284
0.08073254 0.31616548 -0.074330926 0.1786448 0.23964536 -0.12163579 -0.09164077 -0.084003344
0.011750825 0.17626058 -0.022193434 -0.022289835 0.0067629158 0.15108314 -0.13568276 -0.20836043
0.09934243 0.26786658 0.05048111 0.18144538 -0.0122532705 -0.22402053 0.055038292 -0.027233856
-0.2234962 0.25748003 -0.2993114 -0.1877273 0.07201672 0.052132856 -0.02047449 0.14548527
-0.23537883 -0.26793492 -0.101619825 0.16797543 0.1407666 0.13649133 0.12015547 -0.122305594
0.09278253 0.19825897 -0.10486206 -0.2780487 -0.12818821 -0.11154789 0.25881952 -0.099260874
0.17606388 0.10089263 0.06488734 0.26043382 0.32678074 0.16056994 -0.14511405 0.098329514
0.01311093 -0.24973238 0.06826587 0.04184041 -0.08223695 0.09953587 -0.08818259 -0.07829326
0.12387831 0.03527782 -0.0046412935 0.069739975 0.010953298 0.09710001 -0.18902837 0.009773362
-0.017798109 0.08363848 0.24523735 0.23801887 -0.055995755 -0.34578982 0.0462119 0.22889836
-0.17214972 0.006137486 0.1325334 0.09854742 -0.090155765 0.013380201 -0.15488298 0.017577413
-0.1607057 -0.084787466 -0.20882408 0.15227728
00000000: eec8 7b3e a64d c83c a20a 90be 2f6a 8cbd
00000010: f860 1b3e f58d 88bc 52de 59be 093a 5c3d
00000020: 1a57 a53d 71e0 a13e d03a 98bd aaee 363e
00000030: 9865 753e 2f1c f9bd 28ae bbbd f209 acbd
00000040: 8886 403c a77d 343e 01cf b5bc 2c99 b6bc
00000050: 739b dd3b 8ab5 1a3e 6cf0 0abe 705c 55be
00000060: 0b74 cb3d cf25 893e 48c5 4e3d d1cc 393e
00000070: f1c1 48bc a365 65be d56f 613d 8919 dfbc
00000080: 30dc 64be 6cd4 833e 583f 99be 963b 40be
00000090: 817d 933d 4389 553d 1eba a7bc 17fa 143e
000000a0: 2607 71be c42e 89be 0e1e d0bd c001 2c3e
000000b0: 1f25 103e 62c4 0b3e 1214 f63d 5b7b fabd
000000c0: c404 be3d 6604 4b3e ebc1 d6bd 665c 8ebe
000000d0: c543 03be 3873 e4bd fe83 843e 4949 cbbd
000000e0: 174a 343e cca0 ce3d a7e3 843d 9557 853e
000000f0: ce4f a73e 726c 243e c798 14be fc60 c93d
00000100: 3acf 563c d8b9 7fbe face 8b3d da60 2b3d
00000110: d96b a8bd 76d9 cb3d 1399 b4bd 3758 a0bd
00000120: e9b3 fd3d 7a7f 103d fe15 98bb d5d3 8e3d
00000130: 7675 333c 5fdc c63d a790 41be 7420 203c
00000140: 57cd 91bc a74a ab3d 801f 7b3e 38bb 733e
00000150: ce5b 65bd 5d0b b1be b048 3d3d 5564 6a3e
00000160: 0448 30be f71c c93b d6b6 073e 3bd3 c93d
00000170: 96a3 b8bd a138 5b3c a599 1ebe 82fe 8f3c
00000180: 0990 24be 0da5 adbd fbd5 55be 93ee 1b3e

lstm.weight_hh_l1 f4 [10, 10]
0.31295988 0.26025826 0.27443218 -0.14703628 0.32359782 0.017622594 -0.039703425 0.01706851
-0.05377891 0.22381736 -0.1437632 0.123606436 -0.06405433 0.24970047 0.2154945 0.112259895
-0.35121107 0.19277918 0.29346308 0.24061002 -0.090882555 0.17404968 -0.19603145 -0.098456435
0.20274861 -0.1990671 0.14262506 0.18205857 -0.24103993 -0.2911245 -0.29779103 -0.15805033
-0.2843639 0.18657981 0.1740918 -0.2737966 -0.19124499 -0.3561957 0.2345354 0.04736196
-0.26874644 0.08164752 -0.027646167 0.014815196 -0.003064886 0.30296823 0.094894245 -0.18299995
0.039023265 -0.04390798 0.18837045 0.36871356 -0.022072792 0.26910505 0.09589235 -0.21934247
-0.20088372 -0.018384881 0.2109688 -0.2859699 -0.24007943 -0.14707662 0.2502438 -0.20435925
0.10218509 -0.24170476 0.22003785 0.21027617 0.036780227 -0.27463225 0.2742253 -0.2960516
-0.05274416 -0.3301051 -0.12014486 -0.26747686 0.32715988 0.19082238 0.07403284 -0.012030338
0.19890869 0.02698851 -0.34438854 -0.26334625 0.27383697 -0.08453728 0.03703239 -0.28008372
0.017954469 -0.068205155 0.038025588 0.28025776 -0.037309766 -0.1893183 0.30967817 0.008501679
-0.24834572 0.13054559 0.32445294 0.2704803
00000000: 473c a03e 9240 853e 6082 8c3e ae90 16be
00000010: 9dae a53e 425d 903c 0fa0 22bd 43d3 8b3c
00000020: 4647 5cbd 6130 653e a936 13be 5f25 fd3d
00000030: eb2e 83bd 7bb1 7f3e 97aa 5c3e 84e8 e53d
00000040: f0d1 b3be e867 453e cb40 963e 7962 763e
00000050: a220 babd 143a 323e 78bc 48be 87a3 c9bd
00000060: 559d 4f3e 3fd8 4bbe 4e0c 123e 906d 3a3e
00000070: 2cd3 76be 450e 95be 1178 98be f2d7 21be
00000080: 2598 91be c70e 3f3e 1f45 323e 112f 8cbe
00000090: bad5 43be 485f b6be 0c2a 703e 9dfe 413d
000000a0: 2299 89be d136 a73d 377a e2bc 70bb 723c
000000b0: 41dc 48bb a71e 9b3e ea57 c23d 5764 3bbe
000000c0: dcd6 1f3d dbd8 33bd 2fe4 403e 06c8 bc3e
000000d0: 00d2 b4bc 23c8 893e 3563 c43d 509b 60be
000000e0: 76b4 4dbe e49b 96bc 3508 583e a66a 92be
000000f0: 62d7 75be 419b 16be f51f 803e 8d43 51be
00000100: 6b46 d13d 7481 77be 9a51 613e a352 573e
00000110: dda6 163d 999c 8cbe 4267 8c3e 1394 97be
00000120: 430a 58bd 8903 a9be 820e f6bd baf2 88be
00000130: 8081 a73e f166 433e 889e 973d e51a 45bc
00000140: b8ae 4b3e 0217 dd3c b253 b0be 52d5 86be
00000150: 5c34 8c3e e221 adbd 46af 173d 2267 8fbe
00000160: 4015 933c 25af 8bbd b8c0 1b3d f27d 8f3e
00000170: 20d2 18bd a8dc 41be 238e 9e3e a04a 0b3c
00000180: 574e 7ebe bead 053e b21e a63e 657c 8a3e

lstm.bias_ih_l1 f4 [10]
0.2754452 0.26559222 0.21205142 -0.29760677 0.037371915 -0.07440679 -0.15353541 0.17767695
-0.18032904 -0.095398925
00000000: 2707 8d3e b4fb 873e 0224 593e ea5f 98be
00000010: 4b13 193d 9662 98bd 6338 1dbe f2f0 353e
00000020: 2da8 38be 8360 c3bd

lstm.bias_hh_l1 f4 [10]
0.07328057 0.15126523 0.11609994 0.26435345 -0.0003649882 0.113853894 -0.019841189 0.18945438
0.14574333 -0.29136065
00000000: 2014 963d 46e5 1a3e cec5 ed3d 5659 873e
00000010: e35b bfb9 3b2c e93d fd89 a2bc 5400 423e
00000020: bd3d 153e 392d 95be

dense.weight f4 [512, 10]
0.014554155 0.06571731 -0.051292133 -0.27073905 0.16490562 0.24005048 -0.2044862 -0.08354663
0.07092512 0.100513354 0.040073153 -0.17919159 0.1601129 0.018149465 -0.15304393 0.048743885
-0.016030708 0.23921172 -0.29794383 0.1339959 0.07741363 -0.18892738 0.31247616 -0.16974358
0.16135034 0.28946492 -0.08115774 -0.22426501 -0.052218553 -0.14768015 -0.18743223 -0.25581402
-0.27404505 0.14465117 -0.14893052 0.30792794 -0.31467783 0.07771608 -0.21290311 0.032847047
-0.09040606 0.21639995 -0.063830234 0.370959 -0.18536271 0.15523997 0.113726676 -0.33730447
0.27906254 -0.08083974 -0.23155336 0.15382849 0.124280065 0.071572274 0.19302598 -0.12745567
0.08657566 0.2650072 -0.28070608 -0.26083595 0.25030133 0.05183768 0.25289184 -0.10869181
-0.18136251 -0.03907417 -0.080135934 -0.17553142 0.14871334 0.1782878 0.00072188454 0.30318302
0.20372768 0.11175262 0.04607098 0.2600585 0.019190293 -0.13112819 0.05999114 -0.32261845
0.2772071 -0.13929541 -0.1346843 -0.25416607 0.23353676 0.31631956 0.13516106 0.2250556
-0.17153622 -0.06719331 -0.15639584 0.25738287 0.21437065 0.35044914 -0.072819404 0.28020325
-0.04559088 -0.0998118 -0.004281417 -0.2566392 0.21034533 -0.12291988 0.21364076 -0.22807842
0.04605549 0.018244043 0.07263808 0.11600034 -0.05820183 -0.109730236 -0.010461986 -0.20681602
0.07229466 -0.09306266 0.20181736 -0.2707013 -0.18436368 -0.20057718 -0.19231606 -0.27096838
0.037553348 -0.035683185 -0.23069298 -0.30317414 -0.2255553 0.26056564 0.07635077 -0.1783745
-0.23788674 0.18278314 0.22787072 -0.27609664 -0.051416747 0.20715792 0.25095266 0.08728234
0.012603577 -0.16062762 -0.16673377 -0.22928992 0.18223709 -0.21547037 -0.01630751 0.045227468
0.27194676 0.16700692 0.1037459 -0.040467236 -0.16891159 0.3089891 0.27863154 0.03829207
-0.31304508 -0.15728088 -0.14969718 -0.06140417 -0.19307353 0.052898645 0.17518954 0.078734376
-0.23416856 0.28493038 -0.21578516 0.14407787 -0.03090947 0.19785209 0.12519258 0.020823952
0.021432595 0.25730634 -0.16329394 0.29190663 0.14393461 0.23544198 -0.063227706 -0.19392696
-0.3288704 0.20655334 0.2957801 0.06924493 -0.29237017 -0.21706223 0.25358808 0.22686888
-0.08676934 -0.2863933 0.1691574 0.2869582 -0.018193902 0.23042701 0.17129801 0.1666167
-0.027528685 -0.062370714 0.14593224 0.14035417 0.16537698 0.12112578 -0.34465727 -0.22968794
0.097612925 -0.20879939 -0.36367014 0.07119388 -0.28656554 -0.034659777 -0.009852353 0.11230179
0.2230063 0.27127817 -0.056879036 0.3146356 0.20158114 0.39692754 0.03279854 0.2827744
-0.16682495 -0.20398341 -0.17987964 -0.1575738 0.049962167 0.2215625 0.21040273 -0.045248926
-0.08832871 -0.045626424 -0.069582716 0.11712319 -0.012739514 0.18618277 -0.07281521 -0.321813
0.06867145 0.033714116 0.19614105 -0.36918148 -0.10393233 0.201503 -0.0401177 0.23042403
-0.023301983 0.111147255 0.17810337 0.16296469 -0.13355008 -0.06761277 -0.0016955292 0.028606765
0.0074793324 0.041515637 -0.20217206 -0.03802064 -0.18755312 0.2551181 0.25914505 -0.09574731
00000000: 8d74 6e3c cc96 863d b317 52bd 4f9e 8abe
00000010: 05dd 283e cbcf 753e d564 51be 7f1a abbd
00000020: 3041 913d f2d9 cd3d bf23 243d 007e 37be
00000030: a3f4 233e 30ae 943c 8cb7 1cbe aba7 473d
00000040: d552 83bc ebf3 743e 188c 98be 3936 093e
00000050: 0a8b 9e3d 2e76 41be e0fc 9f3e 43d1 2dbe
00000060: 0639 253e bf34 943e 0736 a6bd baa5 65be
00000070: 1fe3 55bd 7739 17be 3cee 3fbe 0efa 82be
00000080: a24f 8cbe 701f 143e 3e81 18be bba8 9d3e
00000090: 741d a1be 9c29 9f3d 4603 5abe a08a 063d
000000a0: d026 b9bd f397 5d3e 6db9 82bd 57ee bd3e
000000b0: b9cf 3dbe 3af7 1e3e 88e9 e83d 2cb3 acbe
000000c0: 49e1 8e3e 4e8f a5bd 531c 6dbe 3785 1d3e
000000d0: 8c86 fe3d 7c94 923d 9aa8 453e bd83 02be
000000e0: 944e b13d 06af 873e b5b8 8fbe 4a8c 85be
000000f0: 7f27 803e bf53 543d 0a7b 813e d099 debd
00000100: 18b7 39be 3d0c 20bd 4f1e a4bd 82be 33be
00000110: 4f48 183e 1491 363e da3c 3d3a ce3a 9b3e
00000120: fd9d 503e 8fde e43d edb4 3c3d 6326 853e
00000130: f634 9d3c 7846 06be 45b9 753d 3f2e a5be
00000140: 17ee 8d3e 75a3 0ebe aeea 09be 0e22 82be
00000150: 4324 6f3e a3f4 a13e a967 0a3e fa74 663e
00000160: 31a7 2fbe a59c 89bd 3b26 20be b0c7 833e
00000170: fb83 5b3e 126e b33e 5722 95bd cd76 8f3e
00000180: 81bd 3abd 216a ccbd 214b 8cbb 3766 83be
00000190: c464 573e 6bbd fbbd a5c4 5a3e 648d 69be
000001a0: aea4 3c3d 8874 953c 46c3 943d 9691 ed3d
000001b0: 0b65 6ebd 3fba e0bd c068 2bbc 94c7 53be
000001c0: 390f 943d a397 bebd 36a9 4e3e 5c99 8abe
000001d0: d5c9 3cbe 1b64 4dbe 80ee 44be 5ebc 8abe
000001e0: 8ad1 193d 8828 12bd c83a 6cbe a439 9bbe
000001f0: f8f7 66be dc68 853e cb5d 9c3d cea7 36be
00000200: 9598 73be 812b 3b3e f156 693e 8a5c 8dbe
00000210: 5e9a 52bd 3521 543e de7c 803e 15c1 b23d
00000220: 3c7f 4e3c 917b 24be 42bc 2abe faca 6abe
00000230: 5c9c 3a3e 44a4 5cbe 5497 85bc 7040 393d
00000240: 9b3c 8b3e dd03 2b3e bb78 d43d f9c0 25bd
00000250: 29f7 2cbe d233 9e3e cba8 8e3e 25d8 1c3d
00000260: 7247 a0be 3d0e 21be 384a 19be f082 7bbd
00000270: 11b5 45be 40ac 583d e364 333e 7d3f a13d
00000280: e2c9 6fbe 65e2 913e c9f6 5cbe 2689 133e
00000290: db35 fdbc bd99 4a3e 7c32 003e fe96 aa3c
000002a0: 6993 af3c a8bd 833e 8736 27be c974 953e
000002b0: 9863 133e b417 713e 877d 81bd ca94 46be
000002c0: b361 a8be b882 533e 7d70 973e 49d0 8d3d
000002d0: 8bb1 95be 9045 5ebe 4cd6 813e 5150 683e
000002e0: 20b4 b1bd 25a2 92be 9937 2d3e 2fec 923e
000002f0: 610b 95bc 0ff5 6b3e bf68 2f3e 919d 2a3e
00000300: d683 e1bc 6f78 7fbd 436f 153e 01b9 0f3e
00000310: 9558 293e cb10 f83d eb76 b0be 5133 6bbe
00000320: 49e9 c73d 82cf 55be f932 babe 19ce 913d
00000330: b8b8 92be 69f7 0dbd c36b 21bc 7bfe e53d
00000340: c35b 643e f9e4 8a3e fef9 68bd eb17 a13e
00000350: 496b 4e3e 163a cb3e c357 063d cec7 903e
00000360: 29d4 2abe 07e1 50be 5e32 38be 075b 21be
00000370: 21a5 4c3d 48e1 623e d073 573e f056 39bd
00000380: afe5 b4bd c6e2 3abd 6281 8ebd 48de ef3d
00000390: 65b9 50bc b2a6 3e3e 2420 95bd acc4 a4be
000003a0: 9ea3 8c3d d017 0a3d 33d9 483e 5b05 bdbe
000003b0: 79da d4bd cd56 4e3e 7552 24bd 47f4 6b3e
000003c0: cde3 bebc 2ca1 e33d bb60 363e 37e0 263e
000003d0: 5ac1 08be 9078 8abd 853c deba bc58 ea3c
000003e0: 3015 f53b 4d0c 2a3d 3106 4fbe 88bb 1bbd
000003f0: ed0d 40be d79e 823e a9ae 843e 2a17 c4bd

dense.bias f4 [512]
-0.006610512 -0.20953864 -0.088666275 -0.07636 -0.03979751 0.15630005 0.0834788 0.28389528
0.029751608 -0.15598556 -0.2997204 0.24554284 -0.08344394 0.044032387 -0.16128927 0.24769457
0.11244816 -0.21771874 0.15201555 -0.2618745 0.22840181 0.18393584 0.06657609 -0.11802292
0.13905579 -0.21888348 0.10781481 -0.23626293 0.21448034 0.045740727 -0.2260824 0.04889562
-0.19833124 -0.19486907 0.116735466 -0.049237244 0.07039849 0.12350469 0.22989266 -0.27096692
-0.14647834 0.020460358 0.060109135 0.13186693 -0.15168019 -0.1921813 0.25772718 -0.29834816
0.07124459 -0.18603906 -0.10360777 0.18724878 0.18813665 0.14851722 -0.17423558 -0.07172887
-0.29985163 -0.1757302 0.1133918 -0.092794776 0.28788856 0.2231391 0.057228934 0.1953161
0.31118277 0.17620009 0.21982266 -0.12678261 0.009264643 0.31684807 -0.0004982585 0.15949379
0.12890318 0.039736148 -0.08931085 0.16472453 -0.108347 -0.05136034 -0.20394707 -0.104591824
0.07149881 0.2963907 -0.27937955 -0.017970417 -0.17561583 -0.21339124 0.2927701 0.08089748
0.04208039 0.16965853 0.2801452 0.12590629 -0.30346176 -0.016207324 0.16842076 -0.107792415
0.27528253 0.08824544 -0.25079492 -0.28686228 0.1079736 -0.27298132 -0.29395166 -0.20861235
-0.09751494 0.17304252 -0.07694336 0.12615241 -0.28499213 0.044974618 -0.16776834 -0.17996646
0.15919743 0.046167985 -0.14340885 0.07423625 -0.04952335 -0.101413794 0.1362774 -0.0015182495
-0.16582967 0.13923305 -0.09143582 0.17216805 -0.009135522 0.09797394 -0.09182701 -0.22456302
0.124682225 -0.2866895 -0.22100443 -0.14641283 -0.30371964 -0.22395281 0.11117635 -0.14115027
0.14830774 0.029209185 0.22206813 0.20425281 -0.18877563 0.13464929 0.18646245 -0.03368894
-0.03030677 -0.21559227 0.0054552145 -0.093920186 -0.2961901 0.097239465 0.11692633 0.015455227
-0.24513718 0.2715614 0.112635575 0.15760633 -0.21444517 0.22842503 -0.22351916 0.14292337
-0.018986149 -0.15951228 0.114819475 0.09566621 -0.07756669 0.19841592 0.046899952 0.14168613
-0.22910376 0.0106551275 0.17023754 0.27551994 -0.0021474182 -0.19550134 -0.065906264 -0.112629585
0.13375145 0.17566869 -0.0014352256 0.20034838 -0.006748792 0.22871585 -0.2729572 -0.016998764
-0.09700484 0.15117672 0.07365736 -0.15983684 0.160176 0.0714044 -0.18801883 0.23263614
-0.15233774 -0.08725396 -0.15729174 -0.17106874 -0.16931866 -0.031569753 0.11328524 0.078913145
-0.26848382 0.009021338 0.27133998 -0.06045554 -0.21104205 -0.20257932 -0.0962516 0.03999026
-0.17866053 0.21744591 -0.25683486 -0.22220647 0.3114736 -0.23693722 -0.20716836 0.05447783
-0.24006638 0.1123885 -0.05072821 0.17335448 0.18714532 0.050697718 0.20195308 0.16383423
-0.28517696 -0.005024748 0.032199427 -0.2777592 0.3097237 -0.20420626 0.07641975 -0.1596322
0.28852078 0.055769864 -0.23629929 0.08946768 -0.25384805 -0.15121059 0.016490886 -0.22884855
0.25575536 0.20585774 0.23112565 -0.06891704 0.17889406 -0.28592983 0.059706233 0.0018565331
0.20044944 -0.28416577 0.1765649 0.21958745 0.07919986 0.08399651 -0.06880449 -0.038762018
00000000: fe9c d8bb 4c91 56be aa96 b5bd a262 9cbd
00000010: b702 23bd 1f0d 203e eff6 aa3d b95a 913e
00000020: a5b9 f33c aeba 1fbe f474 99be 956f 7b3e
00000030: a8e4 aabd 4e5b 343d 0429 25be a5a3 7d3e
00000040: 394b e63d a9f1 5ebe f7a9 1b3e 6a14 86be
00000050: 2ae2 693e ad59 3c3e 0c59 883d 00b6 f1bd
00000060: a464 0e3e fe22 60be 03ce dc3d e9ee 71be
00000070: bca0 5b3e a15a 3b3d 2582 67be c646 483d
00000080: 5817 4bbe c28b 47be 0113 ef3d feac 49bd
00000090: 152d 903d 07f0 fc3d fb68 6b3e 2dbc 8abe
000000a0: 6bfe 15be 7b9c a73c ff34 763d 2008 073e
000000b0: 0d52 1bbe 2dcb 44be d1f4 833e 17c1 98be
000000c0: afe8 913d 0681 3ebe 4f30 d4bd 25be 3f3e
000000d0: e5a6 403e e614 183e d06a 32be 96e6 92bd
000000e0: 2786 99be 9ef2 33be f639 e83d 300b bebd
000000f0: 2166 933e 947e 643e e368 6a3d f200 483e
00000100: 5953 9f3e cc6d 343e 3119 613e 4dd3 01be
00000110: bbca 173c e939 a23e 909d 02ba 5752 233e
00000120: 32ff 033e 5fc2 223d 9be8 b6bd 8cad 283e
00000130: 08e5 ddbd 385f 52bd 80d7 50be 3d34 d6bd
00000140: f86d 923d 86c0 973e d60a 8fbe b236 93bc
00000150: a3d4 33be 3c83 5abe f6e5 953e 94ad a53d
00000160: 7d5c 2c3d f7ba 2d3e 316f 8f3e 94ed 003e
00000170: 575f 9bbe 39c5 84bc 7e76 2c3e 45c2 dcbd
00000180: d5f1 8c3e 06ba b43d 3168 80be 9ddf 92be
00000190: 4321 dd3d 35c4 8bbe d580 96be 7a9e 55be
000001a0: eab5 c7bd 0f32 313e 7b94 9dbd 192e 013e
000001b0: 7dea 91be 4e37 383d 77cb 2bbe 2149 38be
000001c0: a704 233e a41a 3d3d c5d9 12be 2d09 983d
000001d0: ffd8 4abd 09b2 cfbd 4e8c 0b3e 0000 c7ba
000001e0: 41cf 29be 1c93 0e3e b442 bbbd d24c 303e
000001f0: 28ad 15bc 90a6 c83d cd0f bcbd d9f3 65be
00000200: 6559 ff3d f7c8 92be fc4e 62be 3fed 15be
00000210: 2481 9bbe e353 65be 6db0 e33d b289 10be
00000220: fcdd 173e 1a48 ef3c d465 633e a627 513e
00000230: 664e 41be 81e1 093e 03f0 3e3e 6afd 09bd
00000240: e745 f8bc 38c4 5cbe a8c1 b23b 3a59 c0bd
00000250: 3ba6 97be 7c25 c73d 1277 ef3d ec37 7d3c
00000260: 3e05 7bbe 190a 8b3e 7bad e63d 8e63 213e
00000270: 8497 5bbe 40e8 693e 35e2 64be 815a 123e
00000280: d788 9bbc 3057 23be 7926 eb3d a5ec c33d
00000290: 49db 9ebd 8b2d 4b3e 2a1a 403d 2b16 113e
000002a0: 2d9a 6abe d892 2e3c c052 2e3e f310 8d3e
000002b0: b3bb 0cbb 8131 48be ddf9 86bd 57aa e6bd
000002c0: 24f6 083e 7ee2 333e 2e1e bcba 2028 4d3e
000002d0: f824 ddbb 7d34 6a3e 0cc1 8bbe fe40 8bbc
000002e0: 79aa c6bd 12ce 1a3e acd9 963d 45ac 23be
000002f0: 2d05 243e 783c 923d 0288 40be 2b38 6e3e
00000300: 6dfe 1bbe 34b2 b2bd 1611 21be a52c 2fbe
00000310: df61 2dbe 494f 01bd 1802 e83d 379d a13d
00000320: b676 89be 3cce 133c 13ed 8a3e 3aa0 77bd
00000330: 681b 58be f470 4fbe 8f1f c5bd d4cc 233d
00000340: c9f2 36be 24aa 5e3e dc7f 83be 188a 63be
00000350: 7879 9f3e ac9f 72be f123 54be 2524 5f3d
00000360: f6d3 75be f12b e63d 62c8 4fbd d683 313e
00000370: 06a3 3f3e 69a8 4f3d cacc 4e3e 29c4 273e
00000380: b702 92be a4a6 a4bb 8ce3 033d 7436 8ebe
00000390: 1b94 9e3e 721b 51be f581 9c3d a076 23be
000003a0: ffb8 933e f16e 643d 71f8 71be d53a b73d
000003b0: 5ff8 81be f3d6 1abe e517 873c 4657 6abe
000003c0: 5ef2 823e 5fcc 523e 34ac 6c3e 6124 8dbd
000003d0: 0130 373e 6565 92be 868e 743d ea56 f33a
000003e0: 9e42 4d3e 2d7e 91be 6ecd 343e 88db 603e
000003f0: 8933 a23d 5d06 ac3d 5ee9 8cbd ecc4 1ebd

dense2.weight f4 [256, 512]
0.005401421 -0.040259883 -0.007108468 -0.0028331727 0.021986227 -0.04480863 0.042008355 0.029807393
-0.00839077 -0.0059067896 0.021750828 -0.014691777 0.03053755 0.033363163 -0.015189651 -0.009294657
-0.04249633 0.006376464 0.009521346 0.038615327 -0.045942865 0.030728685 -0.03267969 -0.025736587
0.010524613 -0.0043693855 -0.016085967 0.011618227 -0.005171243 -0.046028897 0.04023679 0.009632252
-0.02128861 0.03140985 -0.03232651 -0.040887225 -0.0033055826 0.032497533 0.027409356 -0.034210812
-0.010164991 -0.0044571334 0.033313062 -0.014396061 -0.0033213275 -0.03917729 0.030070022 0.0045078434
-0.039967965 0.028467726 0.027919516 -0.041340757 -0.035087697 0.041766167 0.0029148906 0.0057898057
-0.019139452 0.020137297 -0.013153732 -0.021006186 -0.03641195 0.0022420487 -0.02756441 -0.0102791805
0.014486748 -0.019002696 0.008057494 0.03905351 -0.009225196 0.013726719 9.546013e-05 -0.02459509
-0.03846718 0.0058707707 0.032956783 -0.025191342 0.0012065887 0.0010459243 0.042874042 0.030602852
0.023348166 0.009213622 -0.004363578 0.03217106 -0.017521914 0.04134916 -0.024296867 0.0041342154
-0.019667776 0.034300704 0.010438855 -0.039259184 0.015163399 -0.029486123 0.003255995 -0.014898671
-0.04086723 0.00019702455 0.00022273138 -0.02170167 0.028007649 -0.023863398 -0.0027899481 0.020473275
-0.01422624 0.0035945731 0.012108955 -0.033301495 0.02952763 -0.025405586 -0.029614588 -0.040276203
-0.008601311 -0.008558847 0.044091906 -0.008472342 0.0055710794 -0.042313013 -0.015747745 -0.032817513
-0.0024536303 0.008581752 -0.0046487194 -0.045743737 0.036762137 -0.00059288676 0.0064480007 -0.01613689
0.022646185 0.023240756 0.042494137 0.02984408 0.013457842 -0.01628225 -0.009272587 -0.025332233
-0.031356208 0.021966781 0.041130655 0.010955227 0.020113707 0.0135686975 0.02811977 -0.022463571
-0.02005403 0.0107386 0.035470825 0.0036607373 0.042544406 -0.036603995 -0.0216937 -0.041553125
0.006937373 0.031956516 -0.01261162 0.010743006 -0.0132566225 -0.012676578 -0.03360246 0.006382042
0.011021283 0.014399051 -0.017950723 -0.0073351236 -0.018037992 0.01618296 -0.03678014 0.011788087
-0.011283412 0.008881241 0.020948354 -0.044407092 -0.010118652 -0.039700203 0.026268743 -0.0068555064
0.038057346 0.034455527 0.012686045 0.014724822 -0.040818144 -0.008575825 0.021079637 -0.0055097938
0.031668972 -0.004155753 0.03602821 -0.0138178915 0.043734744 -0.004974909 -0.0073807724 0.02692499
0.017635439 0.004767593 -0.001500655 -0.02991002 0.011642545 0.038760763 0.0097724 -0.033393625
-0.006438329 -0.038786463 -0.0349322 -0.015767906 -0.035373263 -0.034605872 -0.00032673273 -0.02469568
0.024361912 -0.014994557 -0.035310376 -0.038024154 0.03281074 -0.013188392 -0.032419562 0.0058818758
0.0363957 -0.03508877 0.0295089 0.023648158 0.0054240157 0.03768151 -0.0059774052 0.02816734
-0.035177927 -0.027613137 -0.038732022 -0.005378548 0.0029727465 0.016052999 -0.0023714774 -0.029828027
0.036291733 -0.03079112 0.025657307 -0.026980009 0.012355439 -0.012577284 -0.03400152 0.027655404
0.009237469 0.032683764 -0.033744182 -0.025956685 0.008532973 -0.033933286 -0.0005757138 -0.03346217
-0.0454494 -0.037506826 -0.017998967 0.03975535 0.035951 0.011413659 0.028858352 -0.021613875
00000000: 67fe b03b 8ce7 24bd 27ee e8bb c0ac 39bb
00000010: 761c b43c 4189 37bd f410 2c3d a22e f43c
00000020: 7179 09bc be8d c1bb cb2e b23c c7b5 70bc
00000030: e229 fa3c d0a7 083d 04de 78bc 9e48 18bc
00000040: a210 2ebd a8f1 d03b 6bff 1b3c 1b2b 1e3d
00000050: 962e 3cbd b9ba fb3c 23db 05bd 89d5 d2bc
00000060: 6d6f 2c3c 102d 8fbb b8c6 83bc 605a 3e3c
00000070: 8873 a9bb cc88 3cbd 55cf 243d 98d0 1d3c
00000080: 7365 aebc 9da7 003d cd68 04bd 5d79 27bd
00000090: 79a2 58bb 221c 053d 9689 e03c a320 0cbd
000000a0: 108b 26bc 250d 92bb 4773 083d 75dd 6bbc
000000b0: a1aa 59bb 5e78 20bd 6855 f63c 88b6 933b
000000c0: 73b5 23bd 2635 e93c 78b7 e43c ed54 29bd
000000d0: 1eb8 0fbd 0013 2b3d c007 3f3b 69b8 bd3b
000000e0: 57ca 9cbc f9f6 a43c c082 57bc 2a15 acbc
000000f0: b224 15bd 56ef 123b c2ce e1bc 026a 28bc
00000100: d359 6d3c 8bab 9bbc 9403 043c 93f6 1f3d
00000110: 4725 17bc 08e6 603c c431 c838 a47b c9bc
00000120: c38f 1dbd 985f c03b b1fd 063d 135e cebc
00000130: 6626 9e3a 6517 893a b19c 2f3d d5b2 fa3c
00000140: a744 bf3c bbf4 163c 58fc 8ebb cdc5 033d
00000150: 1e8a 8fbc bd5d 293d 390a c7bc 5078 873b
00000160: 511e a1bc e57e 0c3d bb07 2b3c 3dce 20bd
00000170: e86f 783c e28c f1bc 8862 553b 8e19 74bc
00000180: 6664 27bd 6098 4e39 008d 6939 b3c7 b1bc
00000190: 4c70 e53c 2c7d c3bc 90d7 36bb 92b7 a73c
000001a0: 2d15 69bc ee92 6b3b a364 463c 2667 08bd
000001b0: eee3 f13c 601f d0bc 4b9a f2bc a9f8 24bd
000001c0: 83ec 0cbc 683a 0cbc b799 343d 94cf 0abc
000001d0: 9a8d b63b 6950 2dbd 6a01 81bc a86b 06bd
000001e0: 16cd 20bb 7a9a 0c3c 4954 98bb c95d 3bbd
000001f0: e593 163d f56b 1bba c049 d33b 8331 84bc
00000200: 7e84 b93c 6663 be3c 550e 2e3d 927b f43c
00000210: 487e 5c3c 5a62 85bc 0cec 17bc 8b85 cfbc
00000220: 5e6f 00bd aef3 b33c 9e78 283d 8d7d 333c
00000230: 80c5 a43c 3e4f 5e3c 6f5b e63c 8605 b8bc
00000240: 5948 a4bc f4f0 2f3c db49 113d fbe8 6f3b
00000250: 0b43 2e3d 12ee 15bd fdb6 b1bc 9c33 2abd
00000260: e752 e33b d6e4 023d f8a0 4ebc 6f03 303c
00000270: 4e32 59bc 6cb1 4fbc bca2 09bd 7320 d13b
00000280: 9d92 343c ffe9 6b3c 650d 93bc 7a5b f0bb
00000290: 69c4 93bc 2092 843c c6a6 16bd d222 413c
000002a0: 0fde 38bc a082 113c e29b ab3c 36e4 35bd
000002b0: b4c8 25bc ae9c 22bd 8c31 d73c 28a4 e0bb
000002c0: 05e2 1b3d 3d21 0d3d 21d9 4f3c 6140 713c
000002d0: ed30 27bd 9e81 0cbc 34af ac3c 808b b4bb
000002e0: 53b7 013d fc2c 88bb 5192 133d 7064 62bc
000002f0: 3423 333d 9004 a3bb 68da f1bb cc91 dc3c
00000300: 3278 903c 7839 9c3b a0b1 c4ba dc05 f5bc
00000310: 60c0 3e3c 9bc3 1e3d 6b1c 203c c1c7 08bd
00000320: 9ef8 d2bb 8ede 1ebd 1115 0fbd b22b 81bc
00000330: 8ee3 10bd e3be 0dbd 534d abb9 984e cabc
00000340: a292 c73c bbab 75bc 9da1 10bd 37bf 1bbd
00000350: 8e64 063d 2014 58bc 60ca 04bd c0bc c03b
00000360: a813 153d 3eb9 0fbd a6bc f13c c8b9 c13c
00000370: f1bb b13b ed57 1a3d 1cde c3bb 32bf e63c
00000380: bb16 10bd f234 e2bc 78a5 1ebd 883e b0bb
00000390: 69d2 423b 9481 833c ca6a 1bbb e859 f4bc
000003a0: a4a6 143d a93d fcbc 462f d23c 2e05 ddbc
000003b0: 786e 4a3c f410 4ebc 2e45 0bbd 968d e23c
000003c0: c158 173c 69df 053d 5737 0abd 1da3 d4bc
000003d0: e2cd 0b3c a1fd 0abd 80eb 16ba a10f 09bd
000003e0: 2629 3abd c2a0 19bd 9272 93bc 82d6 223d
000003f0: 5b41 133d 5b00 3b3c 5a68 ec3c 950f b1bc

dense2.bias f4 [256]
0.008612962 0.015770175 0.015798133 0.0008530644 -0.034642052 -0.0016489476 0.0482779 0.022963334
-0.056314405 -0.0035503868 -0.02856795 0.01107013 -0.0011085429 -0.031564996 0.031275425 -0.016429126
0.02962228 0.022365939 0.038380086 -0.016440418 0.015407047 0.031236837 0.019264475 -0.0062335012
-0.027355332 0.03571375 0.041683722 -0.024617124 0.029501768 0.009002925 0.0031124693 0.0018714846
0.014152894 -0.033654075 0.01223126 0.037981022 -0.03267623 -0.023708994 0.0137768695 -0.0019858752
0.0023507243 -0.04068076 0.003059473 -0.02217344 0.012031007 0.03516841 0.034398243 0.0468285
-0.04361154 -0.030779168 -0.023033494 0.025807764 -0.009250949 -0.03289159 0.014484114 0.03244669
0.010121185 0.035357945 0.029323772 0.035970207 0.009049192 0.005037131 0.02445947 0.03924896
0.017815283 0.028768776 0.043125223 -0.021512832 0.014670573 -0.027917178 0.03213285 -0.018820956
-0.027617322 0.029226692 0.03432809 -0.0055401465 -0.034366753 0.028461326 0.017587477 -0.039962325
-0.040288076 0.012491178 -0.008831503 -0.011839157 0.03286324 -0.014185095 -0.026403049 0.035847012
0.038048696 0.038814608 -0.035624042 0.027153548 -0.039482344 -0.030452397 0.0010441586 0.006649569
-0.026535958 0.00028180238 -0.028487518 -0.023006735 0.01427406 -0.026825882 0.01761834 -0.002926197
-0.032126818 -0.04022858 0.0053745434 -0.026307173 -0.022495447 -0.009391802 0.005001593 0.016532592
-0.032704268 0.037475448 0.027747974 -0.0061958977 -0.03545653 0.0041254433 -0.02016181 0.00031830714
0.014040494 0.008273747 0.030897843 0.0043690833 0.0045286645 -0.012569458 0.026227836 -0.018818475
0.0033546838 -0.017527232 -0.038161952 0.0136076035 -0.023603283 -0.047080472 -0.0074868724 -0.0009901169
-0.008487447 0.030968662 0.03424533 -0.034425817 -0.009892119 0.008187236 -0.04499099 -0.019375762
0.039460346 0.023532728 0.00041161865 0.01322209 -0.023458842 0.029422963 -0.003934909 0.016869169
0.0018048212 -0.018955676 0.028392084 -0.019220661 0.042916384 0.029910795 -0.013507906 0.035195433
-0.0031157283 0.0046609687 -0.00093369995 -0.014468651 -0.019560965 -0.029550133 -0.0073672915 0.023840109
0.03491797 0.018042756 0.016740246 0.022875309 0.030229442 0.015438768 2.1191288e-05 0.031233162
0.036550675 -0.012433513 -0.025912065 -0.031156406 -0.0014257586 -0.026247032 -0.017691445 -0.00021598715
-0.009888281 -0.03565136 0.031347293 0.00076156127 -0.0161965 0.03318627 0.008972064 -0.026336342
-0.027868256 -0.0031411797 -0.0027111447 -0.01706565 -0.015947504 0.008582655 0.051018737 0.041686255
-0.050128173 0.007910301 0.028648516 -0.023434294 0.041924167 0.030093467 -0.0065306574 -0.029366331
0.002927166 0.011985852 0.025266876 -0.008381078 0.025134603 0.01656083 0.01776451 -0.04026445
-0.014374856 0.040771537 0.048761845 0.015303272 0.008451123 -0.0070239436 -0.01915854 -0.014493163
0.024363983 0.03624766 -0.017030139 0.023084955 0.01911398 -0.027492791 -0.042121302 0.009740923
0.00876426 0.027277434 -0.027618367 0.02754767 -0.008419368 0.004631692 0.022115324 0.030093396
-0.016429665 0.00578196 0.006462912 -0.00610217 -0.01930092 -0.030285591 0.04160072 0.034994185
0.05459653 0.010006535 0.028917737 0.019970328 0.012251158 0.015479063 0.03162794 -0.030691098
00000000: 621d 0d3c 7430 813c 166b 813c 2fa0 5f3a
00000010: d3e4 0dbd 8021 d8ba 0cbf 453d 9a1d bc3c
00000020: efa9 66bd 9bad 68bb 5507 eabc 7e5f 353c
00000030: 874c 91ba 4c4a 01bd a91a 003d 6096 86bc
00000040: 6caa f23c c638 b73c 7034 1d3d 0eae 86bc
00000050: d76d 7c3c 65e4 ff3c 88d0 9d3c 6642 ccbb
00000060: 4a18 e0bc 9548 123d 8dbc 2a3d daa9 c9bc
00000070: b1ad f13c 0181 133c 92fa 4b3b 9a4c f53a
00000080: 8ae1 673c dbd8 09bd 9f65 483c fd91 1b3d
00000090: 83d7 05bd 5d39 c2bc 61b8 613c 7525 02bb
000000a0: 9c0e 1a3b dea0 26bd 7081 483b 13a5 b5bc
000000b0: b31d 453c c00c 103d 2ce5 0c3d 3ecf 3f3d
000000c0: 04a2 32bd 9824 fcbc bdb0 bcbc ce6a d33c
000000d0: 4b91 17bc 55b9 06bd c74e 6d3c d2e6 043d
000000e0: 54d3 253c 7ed3 103d 6838 f03c 7f55 133d
000000f0: 1043 143c 840e a53b 3a5f c83c 84c3 203d
00000100: 5bf1 913c 7fac eb3c 13a4 303d ae3b b0bc
00000110: d85c 703c 91b2 e4bc bc9d 033d 682e 9abc
00000120: b93d e2bc d16c ef3c 9c9b 0c3d 1e8a b5bb
00000130: 27c4 0cbd ba27 e93c 9d13 903c 89af 23bd
00000140: 1c05 25bd cca7 4c3c 02b2 10bc 06f9 41bc
00000150: 9b9b 063d 9a68 68bc 354b d8bc 51d4 123d
00000160: f3d8 1b3d 11fc 1e3d 84ea 11bd 1e71 de3c
00000170: 3db8 21bd 4e77 f9bc 26dc 883a a1e4 d93b
00000180: f061 d9bc e0be 9339 a85e e9bc 9f78 bcbc
00000190: bfdd 693c f4c1 dbbc 5654 903c 70c5 3fbb
000001a0: 6997 03bd b9c6 24bd f01c b03b 2482 d7bc
000001b0: 5f48 b8bc 13e0 19bc 67e4 a33b 5c6f 873c
000001c0: e9f4 05bd db7f 193d b84f e33c f506 cbbb
000001d0: de3a 11bd ba2e 873b 612a a5bc 76e2 a639
000001e0: 1a0a 663c 9c8e 073c 791d fd3c 872a 8f3b
000001f0: 3165 943b 21f0 4dbc c2db d63c 3429 9abc
00000200: 41da 5b3b 4595 8fbc b54f 1cbd 6df2 5e3c
00000210: ac5b c1bc 74d7 40bd 7054 f5bb cfc6 81ba
00000220: ef0e 0bbc feb1 fd3c d544 0c3d 1602 0dbd
00000230: 8e12 22bc c223 063c 7948 38bd ebb9 9ebc
00000240: 2ca1 213d b5c7 c03c 85ce d739 77a1 583c
00000250: c22c c0bc 6d08 f13c 69f0 80bb 3631 8a3c
00000260: c08f ec3a ef48 9bbc 8496 e83c a674 9dbc
00000270: 17c9 2f3d 7c07 f53c 4450 5dbc 1629 103d
00000280: 3f31 4cbb 0abb 983b 8bc3 74ba ec0d 6dbc
00000290: 513e a0bc 1f13 f2bc 5269 f1bb 554c c33c
000002a0: 2506 0f3d 67ce 933c d722 893c 0065 bb3c
000002b0: bca3 f73c e3f2 7c3c f2c3 b137 b0dc ff3c
000002c0: 29b6 153d efb5 4bbc 8a45 d4bc b83b ffbc
000002d0: 85e0 baba 0404 d7bc a6ed 90bc 9c7a 62b9
000002e0: 7502 22bc 2907 12bd 0566 003d 83a3 473a
000002f0: 86ae 84bc 54ee 073d 90ff 123c 50bf d7bc
00000300: f84b e4bc 40dc 4dbb 76ad 31bb 43cd 8bbc
00000310: 57a4 82bc 449e 0c3c 06f9 503d 35bf 2a3d
00000320: 3353 4dbd 359a 013c 4bb0 ea3c 47f9 bfbc
00000330: adb8 2b3d 9386 f63c 20ff d5bb a991 f0bc
00000340: b2d5 3f3b 4f60 443c 7bfc ce3c ca50 09bc
00000350: 15e7 cd3c 94aa 873c e186 913c 56ec 24bd
00000360: 8484 6bbc 0e00 273d 80ba 473d 93ba 7a3c
00000370: 9476 0a3c 1c29 e6bb 5ff2 9cbc bb74 6dbc
00000380: fa96 c73c 6d78 143d ca82 8bbc a91c bd3c
00000390: ec94 9c3c 9038 e1bc 6387 2cbd 6498 1f3c
000003a0: f997 0f3c ed74 df3c ea3f e2bc a7ab e13c
000003b0: 64f1 09bc 73c5 973b 322b b53c 6d86 f63c
000003c0: 8197 86bc 9976 bd3b d6c6 d33b b6f4 c7bb
000003d0: f71c 9ebc 7d19 f8bc 8465 2a3d 1056 0f3d
000003e0: 9ca0 5f3d 73f2 233c e4e4 ec3c d098 a33c
000003f0: 15b9 483c e59b 7d3c 4c8c 013d e66b fbbc

dense3.weight f4 [128, 256]
-0.016516069 -0.017439071 0.035291698 0.07325808 -0.05604022 -0.03864328 0.042738877 -0.0022691994
0.004499381 0.09512867 -0.028573759 -0.02694874 0.016716935 0.010387079 0.06970272 -0.020774543
0.030722242 -0.058775306 -0.027283285 0.009748642 0.05905305 0.03899227 -2.621717e-05 -0.026456736
0.021049224 -0.021576915 0.06198758 0.05337835 0.001301706 0.007304703 0.066979624 0.010332247
0.0004172113 -0.032195244 0.0054849666 0.022062352 0.037815645 -0.015504118 -0.027174681 -0.034280915
-0.030440962 0.010486364 -0.022276834 0.0416276 0.063049816 -0.0013916785 0.0039749704 0.05929212
0.057965364 -0.0259405 0.03537966 -0.03867125 0.014288101 0.042868827 0.036246214 0.10604202
0.0089890035 0.042417374 0.07849532 0.04762222 0.049119666 0.08214926 0.0055338214 0.072568335
0.076972 -0.033261355 -0.052073967 0.017602153 0.056479648 0.02899902 0.039654844 -0.030481486
-0.02856231 0.030824218 -0.01770423 0.021754324 0.043987505 0.010459021 0.041489936 -0.0016576415
0.0019708532 -0.0534681 0.022558546 -0.052360877 -0.00054528366 -0.011576392 -0.07953735 0.041953366
-0.03265279 0.032591403 0.044153936 -0.034424316 -0.0077803507 0.039728962 0.060467105 0.022139406
-0.07281424 0.030451778 -0.030300671 -0.039789602 0.047649454 0.009087519 -0.08061189 -0.05144371
-0.061457463 0.019802658 -0.034182522 0.08783108 0.0369412 0.044605657 0.0025215044 0.090270065
0.0038277663 0.05515508 -0.023016019 0.041241825 -0.027651723 0.016551469 -0.0027289267 -0.017624648
-0.0081197675 0.021107802 0.034004103 0.010296728 -0.0074553667 -0.010384637 0.0144400075 -0.008561152
0.057225928 0.026190974 0.022314783 -0.057732966 0.014853169 -0.07126105 -0.026034929 -0.051435255
-0.038009256 -0.026661843 0.03219424 0.007475793 -0.004940901 -0.06712726 -0.010166485 -0.0039853845
-0.012616367 -0.01057708 -0.07809093 0.040065236 0.053979572 -0.013912398 -0.031225616 -0.0016692469
0.036175005 0.0795095 0.06607202 -0.048485644 0.020320555 -0.05263146 -0.009011596 0.0070271124
0.07068839 0.021485968 0.05108248 5.9403188e-05 0.0032640586 -0.026746899 0.057967093 -0.008514502
0.047935177 -0.00090401986 0.063359395 -0.060957044 -0.0075753164 -0.03233406 -0.010161687 -0.04722077
-0.019864239 -0.06132428 -0.0028261933 -0.010328899 0.05450719 0.0065833176 -0.003323678 -0.012878398
0.012757756 0.06824797 -0.000109545654 0.022786137 -0.028927905 0.007488163 -0.05646584 -0.0067340657
-0.0013711946 0.01805333 0.06712704 0.031047286 0.045999832 -0.06945021 0.06234151 0.02227092
-0.011096428 0.08260463 -0.045570828 -0.016423976 0.04317877 0.029565532 -0.004382615 -0.0050823237
-0.059171062 0.04156245 0.019207262 0.008307499 0.0020021359 0.015027019 0.03632956 0.03598953
0.0035167222 0.009605976 0.011604776 -0.0059072287 0.10900039 -0.024507822 0.064042 0.046411455
-0.032106042 0.007124971 0.05091314 -0.07827775 -0.0143398335 0.04254928 -0.04956593 -0.02776817
0.06872288 0.05915614 0.084004946 0.0213019 0.042414695 0.0578914 0.051626492 -0.01830666
-0.034598548 0.008226615 0.03332522 0.012498329 0.074930914 0.036815703 -0.060276646 0.0065967753
0.01860978 0.020542951 0.08305777 0.06992924 0.06816354 0.008077678 0.018106714 -0.043020688
00000000: b54c 87bc 62dc 8ebc 078e 103d 5508 963d
00000010: 6e8a 65bd 6a48 1ebd f60e 2f3d d9b6 14bb
00000020: 8b6f 933b d2d2 c23d 8413 eabc 9bc3 dcbc
00000030: f4f1 883c 912e 2a3c 4dc0 8e3d 602f aabc
00000040: 36ad fb3c 60be 70bd 3281 dfbc c5b8 1f3c
00000050: 9ce1 713d 5cb6 1f3d f2ec dbb7 ccbb d8bc
00000060: 6c6f ac3c 12c2 b0bc b0e6 7d3d 42a3 5a3d
00000070: 019e aa3a 4a5c ef3b 9d2c 893d 9648 293c
00000080: 27bd da39 29df 03bd 3cbb b33b 1bbc b43c
00000090: 94e4 1a3d fc04 7ebc 709d debc 256a 0cbd
000000a0: 535f f9bc 00cf 2b3c e87d b6bc b481 2a3d
000000b0: 4320 813d fb68 b6ba 7840 823b 4bdc 723d
000000c0: 176d 6d3d 2c81 d4bc 43ea 103d bf65 1ebd
000000d0: a418 6a3c 3997 2f3d e976 143d 8f2c d93d
000000e0: 9d46 133c d7bd 2d3d 28c2 a03d 840f 433d
000000f0: b431 493d df3d a83d 0f55 b53b b59e 943d
00000100: 7fa3 9d3d 0f3d 08bd 834b 55bd 6432 903c
00000110: 3457 673d 5a8f ed3c 1e6d 223d 4fb4 f9bc
00000120: 81fb e9bc 1283 fc3c 7608 91bc 2036 b23c
00000130: 3e2c 343d 505c 2b3c 5af1 293d 3845 d9ba
00000140: 6e29 013b 5e01 5bbd b3cc b83c 5c78 56bd
00000150: 5ef1 0eba e8aa 3dbc 7ae4 a2bd 4bd7 2b3d
00000160: efbe 05bd 907e 053d c2da 343d 8300 0dbd
00000170: 50f2 febb d6ba 223d 5bac 773d b35d b53c
00000180: a21f 95bd 0276 f93c 1d39 f8bc 6cfa 22bd
00000190: 132c 433d d1e3 143c d917 a5bd a4b6 52bd
000001a0: d2ba 7bbd 2f39 a23c f902 0cbd c8e0 b33d
000001b0: a84f 173d 6cb4 363d d33f 253b 83df b83d
000001c0: 43db 7a3b 4bea 613d 178c bcbc 30ed 283d
000001d0: de85 e2bc f296 873c cbd7 32bb 9161 90bc
000001e0: c608 05bc 45ea ac3c e347 0b3d 9cb3 283c
000001f0: 264c f4bb 5324 2abc c895 6c3c 1344 0cbc
00000200: bc65 6a3d 748e d63c 7ecd b63c 6779 6cbd
00000210: b55a 733c 50f1 91bd 3447 d5bc c6ad 52bd
00000220: 98af 1bbd f069 dabc 1bde 033d 7ff7 f43b
00000230: 48e7 a1bb 047a 89bd 5491 26bc d497 82bb
00000240: e1b4 4ebc 7d4b 2dbc 23ee 9fbd 721b 243d
00000250: af19 5d3d d4f0 63bc ddcc ffbc a2ca daba
00000260: 3e2c 143d e0d5 a23d c450 873d e298 46bd
00000270: 4b77 a63c 1694 57bd 60a5 13bc b143 e63b
00000280: 13c5 903d 5703 b03c dd3b 513d b027 7938
00000290: d1e9 553b 501c dbbc e76e 6d3d 6980 0bbc
000002a0: ad57 443d bffb 6cba 92c2 813d 18ae 79bd
000002b0: 5c3a f8bb b870 04bd 347d 26bc 916a 41bd
000002c0: 54ba a2bc 2b2f 7bbd a837 39bb 8b3a 29bc
000002d0: ee42 5f3d dfb8 d73b 10d2 59bb ebff 52bc
000002e0: e805 513c 97c5 8b3d e0bb e5b8 fea9 ba3c
000002f0: 37fa ecbc 445f f53b ba48 67bd 70a9 dcbb
00000300: a8b9 b3ba 94e4 933c e779 893d e156 fe3c
00000310: 526a 3c3d e93b 8ebd d059 7f3d 8171 b63c
00000320: cbcd 35bc 9e2c a93d 7aa8 3abd 938b 86bc
00000330: 39dc 303d 6a33 f23c 0a9c 8fbb 9f89 a6bb
00000340: 5b5d 72bd 633d 2a3d 8c58 9d3c 2d1c 083c
00000350: 4436 033b e333 763c 4ece 143d c269 133d
00000360: cf78 663b 6262 1d3c f521 3e3c 6d91 c1bb
00000370: 993b df3d a1c4 c8bc 7428 833d f019 3e3d
00000380: a081 03bd 9778 e93b 4c8a 503d 1650 a0bd
00000390: 9ff1 6abc 2748 2e3d a505 4bbd 137a e3bc
000003a0: 95be 8c3d b54d 723d c90a ac3d 5281 ae3c
000003b0: 08bb 2d3d 881f 6d3d 4d76 533d d9f7 95bc
000003c0: 35b7 0dbd edc8 063c 0780 083d cbc5 4c3c
000003d0: 6175 993d 10cc 163d a5e4 76bd c329 d83b
000003e0: 8a73 983c b149 a83c 311a aa3d 1037 8f3d
000003f0: 5399 8b3d 3d58 043c 8854 943c 7636 30bd

dense3.bias f4 [128]
0.013789158 -0.056264307 0.004279068 0.012332799 -0.012013006 -0.04258449 0.029865792 0.014875504
0.03230698 0.0360202 -0.03404115 0.044977643 0.011676998 -0.01118413 -0.023595082 -8.796638e-05
0.029870912 0.022984123 0.013133495 -0.00043061958 0.005441931 0.038360372 -0.017767671 -0.0010225751
0.016226944 -0.026335819 -0.0121469945 0.03151782 0.04217125 0.043354105 -0.02793409 -0.0072949496
0.034203622 -0.013681169 0.020534176 -0.009536397 -0.06629134 -0.006187719 0.024111222 -0.044529226
-0.04773919 -0.04999395 -0.056142885 -0.054450862 0.031250022 -0.04622088 -0.036014155 0.015366858
-0.00072136545 0.031429097 0.03021235 -0.0025185167 0.001288461 0.0174143 0.045220297 0.053852454
-0.00059119065 0.032225214 -0.017608277 -0.04034609 0.05436522 -0.015219701 0.023860691 0.042313658
0.036903948 0.019691356 0.0016269269 0.015885994 -0.0025005252 -0.03939172 -0.01865822 0.047759295
-0.06695083 0.041290283 -0.0017289743 0.023242373 0.05284501 -0.06741513 0.054978304 0.01345704
-0.043277036 -0.048778366 -0.014316779 0.034549154 0.026219087 0.0051524886 0.053818814 -0.02618677
-0.046555944 -0.00046899533 -0.009331384 -0.06330015 -0.042896904 -0.043924425 -0.016807893 0.028904503
-0.050326694 0.057402182 -0.016853949 0.0010011038 0.023472404 -0.022597568 -0.045879617 -0.06398814
0.049619682 -0.011788623 0.019449871 0.062281273 0.016361224 0.014260458 -0.045416027 0.048775095
0.0074119796 0.052959416 -0.061007246 -0.013386687 -0.003049455 -0.014693769 0.0076168412 0.017687196
-0.044084717 0.009475016 0.04052547 -0.04166154 0.054535583 0.01288714 -0.059297234 -0.03757902
00000000: eceb 613c 6775 66bd 6d37 8c3b 820f 4a3c
00000010: 33d2 44bc 136d 2ebd 1ba9 f43c 63b8 733c
00000020: 5354 043d eb89 133d bc6e 0bbd 7a3a 383d
00000030: e150 3f3c a43d 37bc 794a c1bc 977a b8b8
00000040: d8b3 f43c 3349 bc3c df2d 573c c8c4 e1b9
00000050: 3a52 b23b c41f 1d3d 828d 91bc ed07 86ba
00000060: 5eee 843c 37be d7bc 3004 47bc d418 013d
00000070: c3bb 2c3d 1394 313d 08d6 e4bc 790a efbb
00000080: 1919 0c3d fb26 60bc 4a37 a83c 8c3e 1cbc
00000090: c1c3 87bd 59c2 cabb e684 c53c 4764 36bd
000000a0: 2b8a 43bd 75c6 4cbd 15f6 65bd de07 5fbd
000000b0: 0600 003d 1b52 3dbd 9483 13bd 46c5 7b3c
000000c0: 041a 3dba ccbb 003d e47f f73c b30d 25bb
000000d0: 94e1 a83a 6fa8 8e3c eb38 393d 6494 5c3d
000000e0: 22fa 1aba 96fe 033d 3c3f 90bc f141 25bd
000000f0: 11ae 5e3d 0e5c 79bc 7f77 c33c 1651 2d3d
00000100: 9828 173d c44f a13c 9c3e d53a 5823 823c
00000110: dadf 23bb 3659 21bd 20d9 98bc 409f 433d
00000120: 841d 89bd 0020 293d c09e e2ba ca66 be3c
00000130: 0274 583d f210 8abd ee30 613d eb7a 5c3c
00000140: 4343 31bd d3cb 47bd ec90 6abc 6a83 0d3d
00000150: 69c9 d63c 35d6 a83b 1e71 5c3d a385 d6bc
00000160: 72b1 3ebd 7de3 f5b9 a9e2 18bc 82a3 81bd
00000170: aab4 2fbd 19ea 33bd b5b0 89bc 23c9 ec3c
00000180: 5d23 4ebd 8d1e 6b3d 4b11 8abc 7837 833a
00000190: 3349 c03c 891e b9bc 44ec 3bbd 370c 83bd
000001a0: 023e 4b3d 1225 41bc 5655 9f3c a61a 7f3d
000001b0: f907 863c b2a4 693c 2806 3abd 65c8 473d
000001c0: 31e0 f23b f9eb 583d bce2 79bd d653 5bbc
000001d0: 5dd9 47bb 22be 70bc b296 f93b bde4 903c
000001e0: 2d92 34bd 193d 1b3c 09fe 253d 4aa5 2abd
000001f0: b460 5f3d 9524 533c a8e1 72bd 75ec 19bd

dense4.weight f4 [6, 128]
-0.042211667 0.032682568 -0.041337874 0.08609445 -0.07934735 0.074974045 0.07100454 -0.012046794
-0.021082155 0.0009812943 0.036791004 0.035618167 -0.039373174 -0.07895737 -0.052599706 -0.050413683
-0.044780742 -0.04032157 0.04786291 0.083514854 -0.05064322 0.007101478 -0.07578725 0.06534856
0.038812313 0.039575916 0.0016147643 0.06845064 -0.07523023 0.09925961 -0.04778437 0.1253437
0.015844027 0.054260366 0.10337053 0.11573687 0.04118313 0.0038475369 0.060612608 0.010178165
-0.005586853 0.06766693 0.055538267 0.03713349 -0.05779904 0.033543777 0.10572587 -0.049127646
0.0030560012 0.0038926627 0.025963701 -0.0886842 0.06597983 -0.005564227 0.07895187 0.10550383
-0.022492385 0.050855733 -0.05973866 -0.07318367 -0.08049463 -0.04193689 0.07599594 -0.028512705
-0.06741867 0.09906438 0.020433936 -0.013325405 -0.06109422 0.032833822 -0.07335884 -0.03500165
0.019541366 0.07758293 -0.023449942 0.020501552 -0.008574998 -0.11979128 -0.04141015 0.054892313
-0.105922006 0.06965937 0.024972368 -0.056227777 0.036248684 -0.017409414 0.08259909 0.010148307
-0.05897952 0.07718554 -0.07842601 -0.047608256 -0.0010667171 -0.036947325 0.029198946 0.040780272
0.06897979 0.091331854 -0.038448907 0.009585621 -0.045175835 -0.05015383 -0.0084136445 0.08715695
0.14121932 0.009024996 0.03306912 0.098515555 0.013454802 -0.080762036 -0.08123557 -0.067436814
-0.047092628 -0.015864894 -0.043449007 0.090821035 -0.024800375 0.042898472 -0.053410567 0.10679703
-0.03815917 0.106923774 -0.034137465 -0.0018232316 0.048103493 -0.107406735 0.014025926 0.013569337
0.106429644 0.06254799 -0.029598214 0.02337355 0.00059776293 0.032127615 -0.064595096 -0.031493083
0.014117979 0.1167187 -0.032545302 0.047915135 0.10975255 -0.07464452 -0.09340102 0.07435195
0.014099153 -0.09104063 -0.07665592 0.032541126 -0.04895467 0.06634426 0.029242616 -0.003820155
-0.051230412 0.11109524 -0.008449122 -0.03245874 0.024468197 0.10881734 0.051415734 0.07426547
-0.015067931 0.02043054 0.07825593 0.039866857 -0.036292035 -0.02630227 -0.0042191427 -0.06571576
-0.06953279 -0.07740055 -0.019931024 0.03713194 0.008530627 -0.03129693 0.10363551 0.050916467
0.06939928 0.12405758 -0.07853005 -0.033509582 -0.058049094 0.06859974 0.050369885 -0.043133866
-0.07950012 -0.00048247928 0.020189054 0.056687444 0.06979372 0.04319029 -0.034191564 0.046282604
-0.08369873 0.04971125 0.12709926 0.093127206 -0.08511485 0.060664263 0.073947124 0.051808678
0.003645061 0.0077356496 0.06565691 0.08522137 -0.027887328 -0.06064168 -0.026069334 -0.05457211
-0.087196454 0.054629516 -0.059577342 0.009952774 0.1019195 0.028910616 -0.016365975 0.07787617
0.07039676 0.03206181 -0.050697077 0.003860152 -0.02386021 0.009231833 -0.015335233 0.113302566
-0.0058337464 0.01512181 -0.06008138 -0.020601528 -0.06861986 -0.053266507 0.034587264 0.09204863
0.13217863 0.095651895 0.11495891 0.03617918 -0.10388462 -0.033022434 -0.045741014 -0.044079024
-0.01624299 -0.006339078 0.057913087 0.035939246 0.063075416 0.07226129 0.01374011 -0.0089451615
-0.025297811 -0.0059697065 0.09362754 -0.0051094294 -0.07265217 -0.111874625 0.0040177363 -0.025887785
00000000: 24e6 2cbd 28de 053d e751 29bd 4952 b03d
00000010: dd80 a2bd fe8b 993d d46a 913d eb5f 45bc
00000020: 7cb4 acbc c69e 803a 2ab2 163d 5be4 113d
00000030: c445 21bd 67b4 a1bd ca72 57bd 947e 4ebd
00000040: 036c 37bd 3b28 25bd e60b 443d d609 ab3d
00000050: 446f 4fbd 84b3 e83b 5936 9bbd 77d5 853d
00000060: a9f9 1e3d 5b1a 223d 80a6 d33a d92f 8c3d
00000070: 4f12 9abd 9f48 cb3d 8bb9 43bd 195a 003e
00000080: 55cb 813c 1e40 5e3d eeb3 d33d 7407 ed3d
00000090: a4af 283d f526 7c3b ed44 783d 51c2 263c
000000a0: eb11 b7bb f694 8a3d 187c 633d 4919 183d
000000b0: b0be 6cbd 3365 093d ce86 d83d 123a 49bd
000000c0: 3147 483b 0b1c 7f3b d4b1 d43c 10a0 b5bd
000000d0: 6f20 873d 1e54 b6bb 85b1 a13d 6412 d83d
000000e0: f341 b8bc 1a4e 503d 86b0 74bd 52e1 95bd
000000f0: 5eda a4bd 04c6 2bbd c2a3 9b3d 7a93 e9bc
00000100: cd12 8abd 44e2 ca3d 1265 a73c cd52 5abc
00000110: ef3d 7abd c27c 063d 293d 96bd e45d 0fbd
00000120: 3715 a03c cde3 9e3d 181a c0bc dff2 a73c
00000130: 267e 0cbc 2155 f5bd b09d 29bd c3d6 603d
00000140: a3ed d8bd 92a9 8e3d da92 cc3c 194f 66bd
00000150: 8079 143d 309e 8ebc b629 a93d 1645 263c
00000160: 8294 71bd 7413 9e3d d19d a0bd e000 43bd
00000170: 16d1 8bba 1456 17bd a132 ef3c 3709 273d
00000180: 4745 8d3d 320c bb3d 9a7c 1dbd 020d 1d3c
00000190: 4c0a 39bd 1a6e 4dbd 62d9 09bc 587f b23d
000001a0: cc9b 103e 94dd 133c 7c73 073d 86c2 c93d
000001b0: 8871 5c3c 9166 a5bd d65e a6bd 501c 8abd
000001c0: 33e4 40bd 18f7 81bc 96f7 31bd 6100 ba3d
000001d0: 282a cbbc 4fb6 2f3d 0ac5 5abd 67b8 da3d
000001e0: ca4c 1cbd dafa da3d bad3 0bbd 80f9 eeba
000001f0: 2b08 453d 10f8 dbbd ffcc 653c ed51 5e3c
00000200: c9f7 d93d 2919 803d f477 f2bc e379 bf3c
00000210: 31b3 1c3a 3f98 033d 6f4a 84bd e4fe 00bd
00000220: 194f 673c 370a ef3d 394e 05bd a942 443d
00000230: f2c5 e03d 3adf 98bd 0949 bfbd d645 983d
00000240: 2200 673c 8373 babd c7fd 9cbd d849 053d
00000250: b184 48bd 80df 873d 368e ef3c 915b 7abb
00000260: fbd6 51bd e785 e33d 306e 0abc 75f3 04bd
00000270: 8771 c83c a0db de3d 4e99 523d 7f18 983d
00000280: 7cdf 76bc f35d a73c a544 a03d 6e4b 233d
00000290: f5a6 14bd dc77 d7bc bc40 8abb fc95 86bd
000002a0: 3567 8ebd 2e84 9ebd 6346 a3bc a917 183d
000002b0: 0bc4 0b3c 3631 00bd db3e d43d c98d 503d
000002c0: 3621 8e3d e711 fe3d 5dd4 a0bd 5841 09bd
000002d0: e3c4 6dbd 057e 8c3d a750 4e3d 23ad 30bd
000002e0: f5d0 a2bd 46f5 fcb9 8463 a53c 1831 683d
000002f0: 03f0 8e3d 4de8 303d 740c 0cbd d492 3d3d
00000300: 3d6a abbd 069e 4b3d 4f26 023e 7ab9 be3d
00000310: b250 aebd 177b 783d 9771 973d 5635 543d
00000320: fae1 6e3b 557b fd3b 2177 863d 8b88 ae3d
00000330: f773 e4bc 6963 78bd 5b8f d5bc 0187 5fbd
00000340: 0e94 b2bd 33c3 5f3d 5f07 74bd f610 233c
00000350: 2cbb d03d f5d5 ec3c f011 86bc 8b7d 9f3d
00000360: 2d2c 903d 3f53 033d bda7 4fbd 9bfa 7c3b
00000370: 7d76 c3bc 1d41 173c a140 7bbc 2d0b e83d
00000380: 0329 bfbb 78c1 773c e517 76bd 89c4 a8bc
00000390: 9288 8cbd fb2d 5abd 60ab 0d3d fe83 bc3d
000003a0: d659 073e 24e5 c33d 946f eb3d 9f30 143d
000003b0: 76c1 d4bd 8842 07bd ee5a 3bbd 358c 34bd
000003c0: 0510 85bc 0ab8 cfbb 4636 6d3d 0835 133d
000003d0: af2d 813d bafd 933d 331e 613c ba8e 12bc
000003e0: 5b3d cfbc 879d c3bb ccbf bf3d 006d a7bb
000003f0: a9ca 94bd 861e e5bd 37a7 833b 9f12 d4bc

dense4.bias f4 [6]
-0.032313406 0.012494081 -0.049537886 0.070538774 -0.074094765 -0.06121643
00000000: 105b 04bd f9b3 4c3c 3de8 4abd a276 903d
00000010: ffbe 97bd 14be 7abd
